supervised/src/gcn_model.pth (torch, 20892 bytes, 5 tensors)

conv1.bias f4 [64]
00000000: 6829 b1be 104e a0bf a77d 29be ff68 3dbd
00000010: 2e79 973e 73e8 97bf 7aef 24be 0000 0000
00000020: a23f d4bf 4d81 03be 90ec 0940 36e6 7ebd
00000030: caa4 95bf 0000 0000 8bae 203e 6294 963e
00000040: 9a33 54bf e537 93bc 971a c93e 57ab 0ac0
00000050: be72 84be ff5e 4c3e 77dd babd 6f7d 8abe
00000060: 8032 aabd d1e8 cebf 7651 7ebe b81f 04be
00000070: 7481 0bbe 021b 473d a4ee eb3e 4084 c1bf
00000080: 5dce c7be 72cb 9ebf ca32 c53f 0000 0000
00000090: 0773 a73e 2027 ae3d a342 f2be 2cfc 9abe
000000a0: b77f 81bf 5304 7f3e 597a 003e 0c70 703d
000000b0: 406f b6bd 6c79 babe 456b 18bf a2e1 14be
000000c0: 2b6f 2fbe 487d 9dbd 470b 0ebf dbad 13be
000000d0: dabc 7d3f d4b9 04be 390c 1cc0 ad0f 65bf
000000e0: 0000 0000 d4d8 48bd a711 28be 8c1d 14bd
000000f0: 2878 63bd 0000 0000 04d9 b5bf aff9 acbe
-0.34601903 -1.2523823 -0.16551839 -0.04624271 0.2958464 -1.1867813 -0.16106978 0.0
-1.6581919 -0.12842293 2.1550636 -0.062231265 -1.1690915 0.0 0.15691583 0.29410082
-0.8289124 -0.017970989 0.392781 -2.1667078 -0.2586879 0.19958113 -0.09124272 -0.27048823
-0.08310413 -1.61648 -0.24835762 -0.12902725 -0.13623601 0.04860974 0.46080506 -1.5118484
-0.3902463 -1.2405837 1.5406125 0.0 0.32704946 0.08503556 -0.47316465 -0.30270517
-1.01171 0.24903993 0.12546672 0.058700606 -0.08907938 -0.36420763 -0.5953868 -0.14539197
-0.17132251 -0.07689911 -0.5548596 -0.1442179 0.9911629 -0.12961513 -2.438246 -0.89477044
0.0 -0.04903491 -0.16412984 -0.03616099 -0.05553451 0.0 -1.4206853 -0.33784243

conv1.lin.weight f4 [64, 4]
00000000: 6c3d 933e 0deb 66bf ee89 88bf 2d0f c53e
00000010: c4ec a93e 57a6 a03c 8b7d d8bf 3e99 b83e
00000020: 3e62 14be 851c 47bd 470b b0bd ea7a 973d
00000030: ae6e 9abe cddb 3ebe 1f52 00be daf7 2cbe
00000040: d40c aa3c bd99 113d fe0f 05be d722 f5bd
00000050: 7617 a1be 593e 2f3d 58d3 1a3f fab1 82bd
00000060: 8f38 553e abc5 68be ce56 d1be 2521 e1bd
00000070: d6b6 63be 1590 04be d73a 41be 5a67 45be
00000080: 5e80 97be 981e 07bf 47b8 4c3f e015 73be
00000090: 25f4 543e eed7 13bf bf18 38bf 10c0 dabd
000000a0: 0825 643e 22ad 1bbf 7c7c e93e 6a16 e2be
000000b0: ac26 e2bc 2c73 83be 06ae 8abd 2e64 4fbd
000000c0: e972 3cbe 4400 de3c 0ff1 b63e 12ec 863b
000000d0: 3d22 90be 6c4a 843d bd08 54be 580b 65be
000000e0: 49b4 83be c92a 3bbd ffaa 6e3e bdec c0bc
000000f0: 4ed1 21bd fb68 3d3e 35bf 30bf 6a33 db3d
00000100: 2c0e d6be 0572 0a3e 4a30 7b3d 94f4 a23d
00000110: 5662 7dbd 03f1 0abe 3e52 88bb 7b1b cb3a
00000120: 906b 86be 54fa 033e 87d9 68be 3b6b 913c
00000130: 0847 013e 020e 8abd ad69 623f 7fcd 66be
00000140: 4910 cabc dd41 35bf c3a3 a6be cd6c a93e
00000150: 636c f8bd cf42 523e 9d62 bcbe 4712 8c3d
00000160: a74c 94ba 1e6c 553c 3dd6 85be 5e3c 80be
00000170: 260c afbe d51d 903d 3556 d7be 297c b93c
00000180: cbf8 8abe 5232 01be 912f aabe 2401 b63d
00000190: e800 26be eb3d 273d f3da c43e 5285 a53d
000001a0: 574c 50be ad21 8fbd 33fc a5bf cebe 8a3e
000001b0: 7b1f 6fbc 19ff 3fbe bdc8 0e3d 5e8f a5bc
000001c0: ee7c b6be 569e f7bd 3238 0a3d b0de 99be
000001d0: 3a71 6ebd 06bd 603e 00a3 86be 2444 13bf
000001e0: 9355 a13b cc18 4fbf 5a66 45bf 4943 2c3e
000001f0: 2e65 10bf 0b65 593e d48b cf3e 8e77 ffbe
00000200: de8c 0bbf 3136 973e 9805 c8be 73a6 033e
00000210: ef12 503e a40c 9d3c 1684 163e c22f 7fbe
00000220: ec3b a13e 451c 2ebf e478 2abe a94c 163e
00000230: 42f8 51be a879 183d d332 25be 826c 4abe
00000240: dab3 273e d209 45bf 5023 7bbe d622 cb3c
00000250: cf3b b9bd a9a9 62be ec0f 4d3d e0a1 a23c
00000260: e6c2 f6bc 4f57 43bf c76b f3be 0a3d 883e
00000270: 39f4 babb 5050 833e 8642 c93d 3d7a d4be
00000280: 2c8c 723e d423 35c0 8d9f 113f 7c49 0bbf
00000290: 021c 8abe 3ec6 9f3e 01e6 e1be 580b 97be
000002a0: 598d 103e ee68 90bd 810b 31be 880f f13d
000002b0: d7ba f5bd d9d7 71bd 8efd d7be 8d46 1e3e
000002c0: 4a2a 4fbe 21f5 533d 2d8c 05bd eab9 15be
000002d0: df30 60bf ee92 813d 6c92 6cbf bac9 063f
000002e0: 8d83 173f 7bde 92be 12c4 8dbe d7c1 c4be
000002f0: ab82 7fbe aceb 34be 808d cebe 9e21 fe3d
00000300: f28b b2be d111 a6bd 8f64 30bf ee73 70be
00000310: 27b4 1bbe be7b d4bd bf78 05bf f8e8 e03d
00000320: f737 a6be 771a 95bd 69e5 6bbf d032 b43e
00000330: 564b c0be bbfa 6ebf 5d53 a43d cc75 bdbe
00000340: 9b34 9a3e fe58 07bf 99cd 8fbe 0a2a b93d
00000350: 01c5 94be 44ad 8ebe c05b bd3d f158 f2be
00000360: f5dc 0f3f ab0e acbd da12 f23c f9d0 b3bc
00000370: 1596 55be aa0a 193e 9956 703e 7708 56be
00000380: 7073 4a3d 2cc6 9dbd 4d16 90be 42dd 56be
00000390: c8b6 4abe 1e9f 8bbd b584 57bc 5bee 34be
000003a0: ff5d 39be 0cf5 023b 52a6 13bf 0c7e 7e3e
000003b0: 341f 07bf 1ae3 013e a4e6 863b d1f4 073e
000003c0: 7392 88be bb77 3ebe 398f adbe 29aa c6bd
000003d0: 6f22 6ebe 02ca fdbd 0d2a 06be aaf4 dabd
000003e0: 6d0b 9ebe 2baa fdbe d30c 103f 0686 ed3e
000003f0: 92aa b9be 6c6c 0c3e c923 ab3d 351b 513d
0.287578 -0.9020241 -1.0667093 0.3848814 0.3318845 0.019610567 -1.6913313 0.36054415
-0.14490601 -0.048611183 -0.08595901 0.07396491 -0.30162567 -0.18638535 -0.12531327 -0.16891423
0.02075807 0.035547007 -0.12994382 -0.11969536 -0.31463212 0.04278407 0.60478735 -0.063816026
0.20822357 -0.22731654 -0.4088654 -0.1099265 -0.22237715 -0.12945588 -0.18870102 -0.19277707
-0.29590124 -0.5278106 0.79968685 -0.23738813 0.20796259 -0.5775136 -0.7191276 -0.10681164
0.22279751 -0.60811055 0.45602787 -0.44157726 -0.02760633 -0.25673807 -0.067714736 -0.05063265
-0.1840321 0.027099736 0.35730788 0.0041174972 -0.28151122 0.06459507 -0.20706458 -0.22367609
-0.25723484 -0.0456951 0.23307417 -0.023550386 -0.03950625 0.18497078 -0.6904176 0.10703166
-0.41807687 0.13520057 0.06132535 0.07956806 -0.06186136 -0.13568501 -0.0041601947 0.0015495861
-0.2625394 0.12888461 -0.2273923 0.017751327 0.12624753 -0.06740953 0.884425 -0.22539328
-0.024665968 -0.70803624 -0.32546815 0.3309082 -0.12130048 0.20533298 -0.36793986 0.068394236
-0.0011314348 0.013026265 -0.26140013 -0.25046057 -0.34188956 0.0703694 -0.42057958 0.022642212
-0.2714294 -0.12616852 -0.33239415 0.08886936 -0.16211283 0.040830534 0.38448295 0.080820695
-0.20341621 -0.06988845 -1.296759 0.27098697 -0.014594908 -0.18749656 0.034859408 -0.020209964
-0.3564219 -0.12090747 0.033745 -0.3005271 -0.05821345 0.21947107 -0.26296234 -0.5752585
0.0049235313 -0.8089721 -0.771093 0.16822542 -0.5640439 0.21229951 0.40536368 -0.498959
-0.5451182 0.29533532 -0.39066768 0.12856464 0.20319723 0.019171067 0.14698824 -0.24920562
0.3149103 -0.68011886 -0.16647679 0.14677681 -0.20504859 0.037225395 -0.16132669 -0.19767955
0.16377202 -0.7696811 -0.2452519 0.024796885 -0.09044611 -0.22135033 0.050064012 0.019852579
-0.030122232 -0.763051 -0.47543165 0.2660907 -0.005705383 0.2564721 0.098271415 -0.4149951
0.23686284 -2.8303118 0.5688408 -0.54409003 -0.26974493 0.31205934 -0.44120792 -0.29500842
0.1411642 -0.07051264 -0.17289545 0.117705405 -0.119985275 -0.05904374 -0.42185634 0.154566
-0.20230976 0.051747445 -0.032604385 -0.14621702 -0.8757457 0.06326853 -0.9241092 0.5265156
0.59185106 -0.28685364 -0.27688652 -0.38429138 -0.2495219 -0.17668027 -0.4034233 0.12408756
-0.34872395 -0.08108867 -0.6890344 -0.23481724 -0.15205441 -0.103751644 -0.5213737 0.10981935
-0.32464573 -0.072804384 -0.9214693 0.35195017 -0.37557477 -0.93351334 0.08023713 -0.37003934
0.3011826 -0.52870166 -0.28086546 0.090412214 -0.29056552 -0.27866566 0.092460155 -0.47333482
0.5619653 -0.08401235 0.029550005 -0.021950232 -0.20858033 0.14945474 0.23470534 -0.20901667
0.049426496 -0.07703814 -0.28142014 -0.2098284 -0.19796288 -0.068174586 -0.013154198 -0.1766905
-0.18102263 0.0019982485 -0.5767566 0.2485277 -0.5278199 0.12684289 0.00411685 0.13276984
-0.26674232 -0.18600361 -0.33898333 -0.09700424 -0.23255323 -0.123920456 -0.13101979 -0.10691197
-0.30868092 -0.4954389 0.5626957 0.46391314 -0.36262947 0.13713235 0.08356435 0.051051337

conv2.bias f4 [64]
00000000: 35db d3bd bc65 0f3e 605c 4a3f db8b 7abd
00000010: f831 3cbf 02e4 35be 1532 27be ebfb 48bd
00000020: 2c5b 893f 75f8 97bd d394 73be 0176 01be
00000030: 6436 8ebd 30c0 ac3f e6d6 52be af0b d33e
00000040: 7c5e 6fbe 3be5 843f 0202 653d 1a21 20be
00000050: 1e2d 473f 91b7 6fbe 26ec 2c3e c8cf 50be
00000060: 9b82 a3bd 9ca9 ebbd fee1 6fbd b3ca c5bd
00000070: 19cb 33be 04a0 d8bd 357d 81be bb42 2fbe
00000080: 5930 36be dc16 88be c1ed a2bd 6fea 793e
00000090: 0947 babd 45d2 2e3e 3454 e2bc b9c9 233f
000000a0: 0ce0 f5bd 90bc bdbe 910e 74be 6cbc 61bd
000000b0: 9576 ffbe 7143 03be 1a9b 80be c58b bfbd
000000c0: 4cbe 4fbe 44fa 3cbe d02b 8e3f dca1 86bd
000000d0: 949c 29be b0ce cdbd 9ec8 9ebe 41c3 b0bc
000000e0: 2f05 d6bd ad8c 33bd 9521 cebe 8e55 44be
000000f0: e34e a4be 6920 4bbe e13e 97bd 631a 8bbe
-0.10344545 0.14003652 0.79047203 -0.061168533 -0.73513746 -0.1776276 -0.16327699 -0.049068373
1.0730948 -0.07420436 -0.2378724 -0.12642671 -0.06943968 1.3496151 -0.2058979 0.4121985
-0.23375887 1.0382456 0.055910118 -0.15637627 0.7780322 -0.23409869 0.16886958 -0.20391762
-0.079838954 -0.1150696 -0.058565132 -0.096578024 -0.17557944 -0.105773956 -0.25290838 -0.171153
-0.1779188 -0.2657994 -0.07955504 0.24405836 -0.0909558 0.17072399 -0.027628042 0.6397968
-0.12005624 -0.37057924 -0.23833682 -0.055111334 -0.49895158 -0.12818696 -0.25118333 -0.09352831
-0.20287436 -0.18454844 1.110712 -0.06573841 -0.16563636 -0.10049188 -0.31012434 -0.02157748
-0.104502074 -0.04383533 -0.40259996 -0.19173262 -0.32091436 -0.19836582 -0.0738504 -0.2716857

conv2.lin.weight f4 [64, 64]
00000000: fa01 92bd f2bd 30be fe53 e43d 4b8c 103e
00000010: 3f77 28be dc42 c6b8 6069 cfbc 3e5b 30be
00000020: 74aa 2bbe fe34 0fbd 359e a63c cd19 82be
00000030: e00f 6ebe 5292 efbd 5381 c13d 9a56 8a3d
00000040: 5485 44bd e89f 1b3e 5569 60be c2d6 4bbe
00000050: 80b4 fa3d 0070 fa3d fd2f 5f3d decc edbd
00000060: 5074 98bc ba85 333d cbc6 193d 9fbd de3d
00000070: 192d cebd b93b 0a3e d8af 143d 3fcc 633d
00000080: 043a b73c a9b1 f73b 455a 7bbe 55c5 593e
00000090: 541d d7bb 7e69 d3bd a85d 0cbe 9ac9 b43c
000000a0: ffd2 83be db23 82bd c8b8 68be 8590 29be
000000b0: 9bb5 8a3c 661e d93d ae1e 7ebe 0245 a33c
000000c0: 2a2f 183e beab 95bd 034b 6bbe d8b6 a33d
000000d0: d45a 2a3b 3fa0 56be f4d4 86be 45b9 a43d
000000e0: 1af3 a13d ff32 483e f5d5 73be ebb0 26bd
000000f0: b6ce 82be ab4d 20be 4e49 bd3d 41c4 81be
00000100: d6ca 843e 4321 bd3e b2e4 a23d f385 883d
00000110: d317 66be 9139 66bc 0326 cbbd 3bb6 d2bd
00000120: 15e0 353d 454b 5abf 9ac3 843e ab7a 233c
00000130: 8a40 85be 7ca7 563d 0a64 fc3b ef80 bdbc
00000140: a48d 21bf 8589 da3d bc9f f9bd f91a d8bd
00000150: a0f4 7e3e 4cef 55be f3dd e2bd ade4 2fbe
00000160: 55f5 dabd 7601 15be 8659 183e f59b 08be
00000170: 7f8e dc3d 3aaf 9ebc 9728 59bf 7e09 80be
00000180: d47e 82be f93e f5bc 3390 3bbe 7973 123e
00000190: cdfe 9abe 69f8 a73d 87ee 26bc b867 d4bd
000001a0: 5561 09c0 8a3e c93c 5cef 4abe 9450 41be
000001b0: 0bd3 49be b653 7fbe ac8c 54be 65c2 2bbe
000001c0: 1463 9d3e 8b99 683e 6862 c13d da9e 9abd
000001d0: ed9d b1bd 16b9 18be af6b a3bf fac7 9abe
000001e0: 3405 473d 3ea9 2ebe 6153 3b3e 9d1b 47be
000001f0: 8500 83be 0801 03be 37d1 d43e 5e81 a9be
00000200: 5675 ecbe f99b e2bd 0ce9 143d a6dc c7bd
00000210: 71a0 273e 6344 9b3d 76e8 2bbe 3ea7 32be
00000220: acb0 1a3d 9843 eebe 6ac2 b13d e844 073d
00000230: 0b36 84bc 4add b73d 201d 103e 8d82 eebd
00000240: 15f9 8cbe 6036 c53d 81be 933d 26e4 99be
00000250: 6928 bbbe b456 dabc 38ea bfbd 842a 02be
00000260: 0e66 0abe 8721 0ebe 1a47 253e 1f04 30be
00000270: cfcd 3c3e c354 853e fbca 22be 23cf b83d
00000280: 7d8f 0b3d fdc8 7cbe 4ec6 f0ba 0489 a0bd
00000290: 85cb eebe 029f 12bc 10fb b03d e8bb 3339
000002a0: a173 f1bf 8219 4dbd 53cb 0c3e 4442 53bc
000002b0: f736 4cbe 0b4d e8bd 5951 6f3d 70cb 8c3d
000002c0: b40e 083e 5c17 a9bd 6058 82bd 92ed e4bd
000002d0: 92da 86bd 3ca4 d0bc 158e 96bf 8e24 8b3d
000002e0: 7469 17bd 054e 043d 327c d73c 12fc 1e3e
000002f0: ebfa 13bd 21a0 07be dc2d 973e 2262 043e
00000300: 8563 2c3e cd98 0d3f 5992 8b3d 6897 53be
00000310: e7b3 74be 7eaf 5dbe 80bc 803d d8c3 2ebd
00000320: 5b34 b6be 634d 553d 22a5 0abf 2448 da3d
00000330: 2b6b 48be 5cb2 653d d6e4 dcbd 4d36 43be
00000340: 1113 14be 88b1 9cbd 3c39 023d 04ac 8b3d
00000350: 0bc3 27be 1828 0bbc 08b1 a8bd 0229 32be
00000360: 51aa 3e3d c0e0 8ebb 9779 293e 59f2 08be
00000370: 55a4 c83d dbbf 743d e11a 143e 2317 55be
00000380: c7fb 4ebe 3a45 f9bd fefb 823e 8324 c0bd
00000390: cec9 2cbe 364d 023c fb26 f13d de08 603c
000003a0: 7598 a23e 6e27 1bbd 3b2b 423e fcae 493d
000003b0: 683b 73bc a8d0 8e3e 5a7c b63c 91b9 2f3c
000003c0: b963 13be a202 98bc fd6e 4f3e b430 ae3d
000003d0: c395 c03c b516 153e de26 e7bf b8fe c03c
000003e0: 0e69 9abd 1415 713d 747a 503e 0903 43be
000003f0: fe23 e83d 4898 55be 8539 69bd b336 263d
-0.07129283 -0.17259958 0.11148833 0.14116018 -0.16451739 -9.453829e-05 -0.025318801 -0.17222306
-0.16764241 -0.034962647 0.02033911 -0.2541031 -0.23248243 -0.1169783 0.09448495 0.06754799
-0.047978714 0.15197718 -0.21915181 -0.19906142 0.12241459 0.122283936 0.054489125 -0.11611341
-0.01861015 0.043828703 0.0375431 0.10876011 -0.100671954 0.13499345 0.03630051 0.055614706
0.022366531 0.0075590205 -0.24546154 0.21266682 -0.0065647755 -0.103228554 -0.13707602 0.022068787
-0.25746915 -0.06354495 -0.22726738 -0.16559036 0.0169323 0.10601501 -0.24816391 0.019930366
0.14861742 -0.07308148 -0.22977833 0.07993859 0.002599408 -0.20959567 -0.26334345 0.0804315
0.07907696 0.19550703 -0.23812087 -0.040696066 -0.25548333 -0.15654628 0.092424974 -0.25345042
0.25936002 0.3693944 0.079537764 0.06666174 -0.22470026 -0.014051811 -0.099193595 -0.10288664
0.044403154 -0.852711 0.25930482 0.009977977 -0.26025802 0.05240582 0.0077023553 -0.02313277
-0.6310675 0.10670761 -0.1218867 -0.105520196 0.24898005 -0.20892066 -0.1107749 -0.17177077
-0.106913246 -0.14551339 0.148779 -0.13340743 0.107693665 -0.019370664 -0.8482756 -0.25007242
-0.25487387 -0.029937254 -0.18316726 0.14301862 -0.30272523 0.08201677 -0.010188705 -0.10371345
-2.1465657 0.024565954 -0.19817871 -0.18878394 -0.19709413 -0.24934277 -0.20756787 -0.16773374
0.30739653 0.22714822 0.09442598 -0.0754983 -0.086727 -0.14914355 -1.2767237 -0.30230695
0.048588946 -0.17056748 0.18293525 -0.19444127 -0.25586334 -0.12793362 0.41565868 -0.33106512
-0.4618327 -0.11064906 0.036355063 -0.09758882 0.16369797 0.07581403 -0.16787896 -0.1744661
0.037766144 -0.46535945 0.0867966 0.0330247 -0.016139051 0.089777544 0.1407361 -0.11645994
-0.27533785 0.09629512 0.0721407 -0.30056876 -0.36554268 -0.026652671 -0.093708456 -0.12711531
-0.13515493 -0.13879977 0.16140404 -0.17189072 0.18437885 0.2604123 -0.15897743 0.09023883
0.034072388 -0.24686046 -0.0018369646 -0.07838634 -0.46639648 -0.008949043 0.08641636 0.00017140771
-1.8863412 -0.050073154 0.13749437 -0.012894217 -0.19942842 -0.1134282 0.05842719 0.0687474
0.13286859 -0.082564086 -0.063645124 -0.111781254 -0.06584658 -0.025468938 -1.176211 0.06794082
-0.036965802 0.032300968 0.026304338 0.15525845 -0.036127966 -0.13244678 0.29527175 0.1292806
0.16834839 0.5531128 0.06815023 -0.20663226 -0.23896752 -0.21648976 0.062859535 -0.04266724
-0.3558682 0.052075755 -0.5415822 0.10658291 -0.19572131 0.0560783 -0.107858345 -0.19063683
-0.14460398 -0.07651049 0.031792864 0.06819919 -0.16382997 -0.008493446 -0.08236891 -0.17398456
0.046549145 -0.0043602884 0.16550289 -0.13373698 0.09796969 0.05975328 0.14463378 -0.20809607
-0.20213233 -0.12171407 0.2558288 -0.09381964 -0.16873857 0.007952979 0.11775013 0.013673989
0.3175694 -0.0378794 0.18961804 0.049239144 -0.0148457065 0.27893567 0.022276092 0.010725395
-0.1439351 -0.018555943 0.20257182 0.08505383 0.023508912 0.14559443 -1.8058736 0.02355896
-0.07539569 0.058857992 0.20359212 -0.19044127 0.1133499 -0.20858872 -0.05693962 0.04057951

lin.weight f4 [1, 64]
00000000: 8580 f7bb a941 be3d a3f0 243d ccc1 c33d
00000010: 5477 9cbd 5e80 19be b272 c3bd d77e c9bc
00000020: d4f8 213e c05d 233c 8ad3 5b3e a996 4b3d
00000030: 04c6 b7bb 8360 513e 9427 f4bc c823 833d
00000040: 634c 69bc 0d30 543e 8a46 dfbc 4c4c 0dbe
00000050: a434 f23c 1f31 0bbd 0b5d 6ebc a2fc 13be
00000060: d844 f23c b89c 123c 5391 f7bb 3260 d3bd
00000070: 34b0 813b 7eff f73a fe74 dcbc 5a8a babc
00000080: 9aa5 813d 6036 093e fcb2 1bba d7cd 163e
00000090: 0203 d2ba 195c b3bd fa8b 913c 1184 633e
000000a0: 1d1c b23c 0e41 603e 8345 143e 6ec0 2a3d
000000b0: 32eb b1bd d62e 1f3e 1a3a 293d ba11 98bb
000000c0: c2d4 b63d 5e7e 18bd f15a 283e 33c6 0f3c
000000d0: 2aca 9fbd c72b eabb 9b55 72be cf03 acbd
000000e0: 586d 8f3c 8617 ec3c 5b63 c1bd 4418 8abe
000000f0: 4bf9 163e 45e6 1cbe 23af d73b 0f11 2cbd
-0.0075531625 0.092898674 0.04026855 0.09558448 -0.076399475 -0.14990374 -0.09543361 -0.024596615
0.15817577 0.009971082 0.21467414 0.049704228 -0.005608322 0.20446973 -0.029804029 0.06403309
-0.014239403 0.20721455 -0.027255315 -0.13798636 0.029566117 -0.033982392 -0.01454855 -0.1445184
0.029573843 0.0089484975 -0.007555166 -0.10321082 0.0039577726 0.0018920747 -0.026911255 -0.02277105
0.06330414 0.13399649 -0.00059394515 0.14726959 -0.0016022625 -0.087578006 0.017766941 0.22218348
0.021741921 0.21899816 0.14479642 0.04168742 -0.08687438 0.1554521 0.041315176 -0.004640785
0.08927299 -0.03722989 0.16440941 0.008775282 -0.078022316 -0.007146332 -0.23665468 -0.08399164
0.017508194 0.02881981 -0.09442779 -0.26971638 0.14743535 -0.15322216 0.006582157 -0.042008456
