supervised/src/gcn_model.pth (torch, 20892 bytes, 5 tensors)

conv1.bias f4 [64]
00000000: b74b 873e 0bdd bfbd 266a 423e 0021 9ebe
00000010: 8e91 09bf ad70 83bd b7a7 20be dae0 cbbd
00000020: 0788 663e efa5 94bd 3c24 ca3e 1b71 c5bd
00000030: 1fa3 63be 44f0 8fbd ebfe c43d 1c64 75bd
00000040: 7152 3c3e 0000 0000 2e87 15be eceb 673c
00000050: 459f 10be bee2 43be ac26 db3e 162b d43e
00000060: 6020 223f 18b4 77bd 0d61 c93d be6b 383a
00000070: 1e27 28bf 5cbe f6bd cae4 a0bd c857 aebe
00000080: a1ef 34be 31ba 7abd e862 f23a 26ce 42be
00000090: 4764 90bc b637 16bf 8e46 973e 8e96 ce3e
000000a0: c456 85bd 3526 bebd 40c6 b6bd b3c2 49bf
000000b0: 3f1c 1fbe c5bc 2f3f b4ab bfbe 0fb6 85bd
000000c0: bb94 fabd af45 17bf 00d5 eabd 9d52 abbe
000000d0: 464b 36bd 8a82 59bd 9701 d4be 819b 00be
000000e0: 3a05 4fbd 0ef8 80bb 24d8 a3bd 5bed 95bd
000000f0: b4fb ab3e 7dba 273d c767 16bd 16bd a7bd
0.26424953 -0.093683325 0.18985805 -0.30884552 -0.53737724 -0.064179756 -0.15688978 -0.099549964
0.22512828 -0.07258212 0.3948077 -0.09640714 -0.22230195 -0.07028249 0.09618934 -0.059909925
0.18390824 0.0 -0.14602348 0.014155369 -0.14123257 -0.19129464 0.42802942 0.41439122
0.6333065 -0.060474485 0.09832964 0.0007035098 -0.6568469 -0.12048027 -0.07856138 -0.34051347
-0.17669536 -0.061212722 0.0018492611 -0.19023952 -0.017625941 -0.5867876 0.29546016 0.4034924
-0.0651069 -0.09284631 -0.08924532 -0.7881271 -0.15538119 0.68647414 -0.37435687 -0.065288655
-0.12235399 -0.59090704 -0.11466408 -0.33461466 -0.04450538 -0.053103007 -0.41407463 -0.1255932
-0.050542094 -0.0039358204 -0.0800021 -0.073206626 0.33590472 0.040949333 -0.036720064 -0.08190362

conv1.lin.weight f4 [64, 4]
00000000: 3a0d d5bd 9b3a 373e b7d2 cdbe d803 d43d
00000010: 3eac 7bbe ffd8 343e 7fd2 babe 1eb8 053d
00000020: 0b30 723e cbed 873d fe65 abbd bf86 71be
00000030: 0063 d5bd 7349 3a3d 3a86 103e c8a3 9fbe
00000040: 316b b9bd b266 883e 01a1 d83d b82b 6b3d
00000050: 273b 0d3e 886c 55be 0336 63be ea14 85be
00000060: 7c74 fdbd 1d28 c8be b830 4b3e 4c3d 51be
00000070: 0acf 4bbe e371 c9bc 9ce3 023e 4ad0 08be
00000080: 7b71 17bd 38bb f33d c974 b93d 2928 44bd
00000090: 8fff 89bc 6c26 16be 7416 adbe 7461 703e
000000a0: 800e c03d 5ad4 233d d86b c7be 7a3a 243e
000000b0: 47c1 9abe 1505 163e 151d 1ebe bb21 84be
000000c0: 401c d8be 74a3 283e 06b7 08be c56c 53be
000000d0: fc6e 27bd b173 62bc d29d 5bbe 3660 cfbc
000000e0: 6941 b5bb a3d0 0ebe dcc0 8fbc f440 b93d
000000f0: 9cc9 33bd 8ff3 20bd fc1b 1abe c251 c2bd
00000100: 8978 a03d c700 2fbe 4c1d cebd ae4d 103e
00000110: 487d 52bd 6c06 f7bd d7b5 2dbe b180 56be
00000120: da03 5abb e937 aabe e699 b8bd c8e5 2c3e
00000130: 8348 d53d 9f9b 3abe 3813 a73d da14 1bbd
00000140: 9485 4dbe 4a49 c23d dccc 1ebe c965 1dbd
00000150: b8a3 55bd cb08 82be 14de 623e cf8a 94be
00000160: 6c0f d13d f7a7 b63d bad9 90bb b27f 29be
00000170: e683 0b3d e225 073e 37fa c6be e8d7 b23d
00000180: c81a fd3c 6022 a23d 74fa 22be bfba bfbb
00000190: d934 203e 7e7d 45be a212 e3be 2966 053e
000001a0: bda5 e3bd f543 f73d f029 53be 2027 0b3e
000001b0: 640d 85bd 4592 92be f13b 093e cb60 e13d
000001c0: e446 74bb be98 133d c504 b03e 6271 d7bd
000001d0: 6479 29be 1ba3 79be 61f8 3f3e 28ae 8c3d
000001e0: 488c 90be 938c 143e 5764 85be f2bb 89be
000001f0: c83e 8dbe a788 fd3b 8e9a 023e ccc4 563e
00000200: 95f0 ebbd 9147 98bf 9bbd 1d3e 65bb f4bc
00000210: f4d6 a9bd 38e8 c13b e570 72be 30bf 96be
00000220: 74fe df3d 83a1 013e bee7 56be 35ae bfbe
00000230: e898 8d3e b048 d1be b0e8 3abe 8ea6 c9bb
00000240: 51d0 95be d9a9 1e3e 2459 7ebe 5622 8fbe
00000250: 3fb8 e2be ddcd 603d 7e04 223d cc3c 693e
00000260: 48c0 d5bb 57e0 98be 33dc 423e fb1d 213e
00000270: b10b b93d dfda 15bd 95cd f4bd 18ce ad3b
00000280: ddfc c13d 656e c3bd 7361 f9bd ad10 6a3c
00000290: 68a7 383d 700a 2c3e 03c1 51be 86c3 bbbe
000002a0: 3e1f febd b907 7ebd e1c5 f53d 0d97 62be
000002b0: fe9c 56be 2891 013e 125e 593e e394 5d3e
000002c0: d0e8 a8be 6c02 9a3d 6d9d 083e e1e7 acbc
000002d0: 194a c53b 56f2 823e 28dd c4be d0d6 97bd
000002e0: da3c 27bd 68ab 093e 7322 953e 9cfa 96be
000002f0: f75d 85be 51bf 4fbe 0f3b babe bf74 e03c
00000300: 1aad 79be 1a98 bdbe fa5d 63bd 9840 8e3d
00000310: f804 ea3e 6b4a 4bbd 0f6e 9abe 1a93 65bd
00000320: 4b8f 31be a163 11be 90d1 1d3e 11e1 2dbd
00000330: e171 903e f523 cb3b 5eaa e03d adc4 37bc
00000340: 0f68 f2bc 5e4f 0a3d f626 5bbe 05ad a1bd
00000350: 55f2 a5be 4093 1a3d 5e69 8abe 9b71 32be
00000360: b879 d7be c9f0 97bd 4231 4cbe 6fb5 e73d
00000370: 263e d0be bf00 02bd 38ec a2be da8e 163e
00000380: adce 49be 323d 373c 7069 23be ecb5 3fbe
00000390: ceab 08be e878 7bbe 4706 2ebe 19c3 e33c
000003a0: a55a 8cbd 5bcf 333d f012 babe d2d6 293e
000003b0: a6be 173e 24d8 60be 9885 d63d 3267 bdbe
000003c0: c7e5 5b3e eaf1 8d3d db58 c33d d5bd 81be
000003d0: 95ed 45bd d8cc 783e 8aa1 7dbe a5d3 72be
000003e0: 84c7 383e 47ff 52bc f04d 6a3e f438 9cbe
000003f0: 6f1d 9f3e 08bb 84bf 23a5 09be 468d 483d
-0.104029134 0.1789345 -0.40199825 0.10352296 -0.24577424 0.17660902 -0.3648872 0.03264629
0.2365114 0.06637152 -0.08369063 -0.23586558 -0.104192734 0.045480203 0.14113703 -0.31179643
-0.09053648 0.2664085 0.10577584 0.05741474 0.13792096 -0.20842183 -0.22188573 -0.2599252
-0.12375733 -0.39093104 0.19842803 -0.20433539 -0.19903198 -0.024590438 0.12782139 -0.13360706
-0.036973458 0.119009435 0.09055478 -0.047889862 -0.016845493 -0.14663094 -0.33806193 0.23474675
0.09377766 0.039997436 -0.38949466 0.16037932 -0.30225584 0.14650376 -0.15440781 -0.25806984
-0.42209053 0.16468602 -0.13351068 -0.20646961 -0.040877327 -0.013821528 -0.21446922 -0.025314432
-0.005531479 -0.13946776 -0.017548017 0.09045592 -0.04389344 -0.039294776 -0.15049738 -0.0948825
0.0783549 -0.1709014 -0.10064182 0.14092132 -0.05138901 -0.12061772 -0.16963898 -0.2094753
-0.0033266456 -0.3324578 -0.09013729 0.1688453 0.10414221 -0.18223427 0.081579626 -0.037861682
-0.20070487 0.09486635 -0.15507835 -0.038427148 -0.052158087 -0.25397334 0.22155029 -0.29012153
0.102080196 0.089187555 -0.0044204863 -0.16552618 0.034061335 0.13198045 -0.38862774 0.08732587
0.03089656 0.07916713 -0.15915853 -0.0058511193 0.1564516 -0.19286153 -0.44350153 0.13027252
-0.111155964 0.12073509 -0.20621467 0.13589144 -0.06496695 -0.2862722 0.13401772 0.1100479
-0.00372737 0.03603434 0.3437864 -0.10519673 -0.16550213 -0.24378626 0.18747093 0.06869155
-0.28232026 0.1450675 -0.26053116 -0.26901203 -0.2758696 0.0077372375 0.1275427 0.2097351
-0.11520497 -1.189684 0.1540436 -0.029874513 -0.08292952 0.005917575 -0.23675878 -0.2944274
0.10937205 0.12659268 -0.2098684 -0.37437597 0.2765572 -0.4087577 -0.18252826 -0.006153888
-0.29260495 0.15494479 -0.24838692 -0.27955884 -0.44281194 0.054883827 0.039555065 0.22777098
-0.006523166 -0.29858658 0.19029312 0.15734093 0.09035433 -0.036585685 -0.11953274 0.0053041093
0.09472058 -0.095425405 -0.1217679 0.014286202 0.045081526 0.16800857 -0.20483784 -0.3667261
-0.12408303 -0.062019084 0.12000633 -0.22127934 -0.20958325 0.12653029 0.21227291 0.21638827
-0.32990122 0.07519993 0.13341303 -0.021106662 0.006020796 0.25575513 -0.3844998 -0.07414019
-0.040829517 0.13444293 0.29127845 -0.29488075 -0.26048252 -0.20287825 -0.36373183 0.027399419
-0.2438244 -0.37030107 -0.055509545 0.06945914 0.45706916 -0.049631517 -0.30162093 -0.05604849
-0.17339818 -0.14198162 0.15411973 -0.04245097 0.28211883 0.006199355 0.10969995 -0.011216325
-0.029590635 0.033767097 -0.21401581 -0.07894329 -0.32411447 0.037738085 -0.27033514 -0.1742615
-0.42085052 -0.07418973 -0.19940665 0.113139026 -0.40672415 -0.031738993 -0.31820846 0.14702931
-0.19707747 0.011184024 -0.1595819 -0.18721741 -0.13346788 -0.24557841 -0.16994582 0.02780299
-0.068532266 0.04389892 -0.36342573 0.16585854 0.1481882 -0.21957451 0.104747 -0.36992794
0.21474372 0.06930907 0.09538432 -0.25340143 -0.04832228 0.24296892 -0.24768654 -0.23713548
0.18044859 -0.012878246 0.22881293 -0.30512202 0.31077144 -1.0369577 -0.13441901 0.048962854

conv2.bias f4 [64]
00000000: 2b18 6ebd 8401 1cbe 32f3 75bd 1694 14bd
00000010: bd06 01be 0205 00be 2ec7 afbd a81b debd
00000020: e6fe 58bd adfb 75bd fbce 24bd b03a ccbe
00000030: 26ae fa3e 38d0 80be 1b50 22be bf95 383d
00000040: 4122 41bd 07f7 16bd 90c1 02be 805c 42bd
00000050: e072 37bd 8f71 96bd 8aee 07be 6a3e e43e
00000060: 5b9a 12bd c802 3ebe 64f6 e03e 8d1c 7ebd
00000070: 015d 883e b0d8 84bd 0f7e 993e fadb 31be
00000080: a9f1 75bd e642 bcbc bbb9 04bd 9310 4bbd
00000090: dc20 9abd 5ccd 963e 1a25 87bd dda7 db3e
000000a0: 8b2c b8be eb6f 95bd 2e97 7f3e 871a 2bbc
000000b0: 8362 b9bd e6a3 3abd 9b84 3bbd 537b 8fbe
000000c0: 5b32 2fbd 18da 65be ba24 abbd ac23 9abd
000000d0: eb88 8abe 0b93 70bd f0e1 82be c49c d8be
000000e0: 219e 19bd 883f d43e b62c bdbd 543e e03e
000000f0: 8bd6 59be 18f4 adbd f175 86bd 9f91 70bd
-0.058128517 -0.15234953 -0.060046382 -0.03627404 -0.12600227 -0.1250191 -0.085829124 -0.10845119
-0.052977465 -0.06005447 -0.040236454 -0.39888525 0.4896099 -0.25158858 -0.1585087 0.045064684
-0.047151808 -0.036856677 -0.1276915 -0.047451496 -0.044787288 -0.07345878 -0.13274589 0.44578868
-0.035791736 -0.18555748 0.4393798 -0.062038947 0.26633456 -0.06486642 0.29978988 -0.1736907
-0.06004492 -0.022981118 -0.03240369 -0.049576353 -0.07525799 0.29453552 -0.065988734 0.42901507
-0.35971484 -0.07296737 0.24960014 -0.010443336 -0.09051993 -0.045566462 -0.04578076 -0.28023776
-0.042772632 -0.22446477 -0.083566144 -0.07526335 -0.27057585 -0.05873398 -0.25563002 -0.42307103
-0.03750432 0.4145472 -0.092370436 0.43797553 -0.21273248 -0.08493823 -0.06565464 -0.058732625

conv2.lin.weight f4 [64, 64]
00000000: c2d1 31be f637 b53d c225 ccbc 8955 383e
00000010: a340 17be 7fb7 cd3c 215c 9939 14ea 15be
00000020: 1fff f0bd ec85 17be 8733 ae3d 5265 6abc
00000030: b358 22bd 0c93 883d ccbd 02be 73f2 1f3e
00000040: 505a 95bd 141f 56bd a970 e53d 8f83 d2bc
00000050: f3d6 d53b aef2 92bd 6334 14bd 1584 fbbc
00000060: d6db 233e e82f 853d 3674 3f3d 7958 fcbc
00000070: e8ed f23c 3550 3cbc a3b4 9b3c 75e0 2c3e
00000080: fd11 f8bd f622 003e 4d74 2dbe 1721 5d3e
00000090: 6e07 7dbd b8f6 063d d43b cf3c 217a 2e3e
000000a0: bb3e 083e 865c 273d 5cad c53d c23d d8bd
000000b0: 77e2 853d 93af f0bd 9de8 d43d 93ff 9bbd
000000c0: bf96 103e 434b 963e caf0 0cbe a994 fdbd
000000d0: cb1a e53d a5c2 9fbd 95e7 24be 477d 9a3d
000000e0: b0fb 583e 24db c9bd b94e 82bd b72e a7bd
000000f0: eba2 2b3e 9fb8 0b3d 50a2 43be 036d 84be
00000100: e88b 783e 3a25 ae3d 6c2c 53be f8c3 45be
00000110: 811c e3bd 3a17 e4bd c8c9 1c3e f5e2 26be
00000120: 49b9 d83d f87d 423c d596 0f3c 5ce0 46bd
00000130: 5d27 0cbd 5850 6fbe 7a34 96bd 5e25 cabd
00000140: 1c52 153e dd4a 1c3e 04ee 63be 8e07 573d
00000150: 7283 04be 09df 39be 9476 b13d ee97 4b3e
00000160: d078 35be 62e5 ca3d 1b48 b43d 50bf 38be
00000170: 82a1 debd 263e 12bd 2da6 90be 22c2 bfbd
00000180: 9dca 97be f1e9 1ebe 6683 423c cb09 a7bc
00000190: 827d febc b71c 243e 1f36 403e 0dcb 2ebe
000001a0: 1b01 983d 2c55 ee3c 55b0 b73d b20b 163d
000001b0: 34b8 a53c 45cf 553e fc2b f73a e996 0e3e
000001c0: b459 133d 3f4f 943e 91b6 29bd 0292 05be
000001d0: cf8b 20be 224b 25be 6916 2a3d babf fe3d
000001e0: 3297 1cbe 9c0d 01be d3be bf3b e878 55be
000001f0: 8ed2 62be 570b 1c3e 1678 3ebe f381 313e
00000200: cdbd cdbd c1d4 343e 9f56 17bd 11cd 003e
00000210: 8c41 51be 3193 dbbd f4ad 5dbd 8c3e 01bd
00000220: f5cf 153e 4b8b 133e 3c6e b5bd 10ef d53c
00000230: 7ad5 20be c594 1d3e 49f0 c63c eb17 bd3d
00000240: 0463 86be 3532 183e 2e87 023e f73c fa3d
00000250: 707b 8cbe 650a 4bbe 1b1f b5b9 5c3c 67be
00000260: ed25 2d3b cef9 04be 4fd7 62bc 493c 89be
00000270: ba45 d43d a729 0fbe 084e 2bbd 04d0 edbd
00000280: 31e9 4c3e 2620 4bbe 4c8e 7e3d 5d2b 053e
00000290: e05f 45bd 74e0 59be 5cb1 38be 9d7c 59be
000002a0: e060 bbbd bec7 87be 8d4a 09be 0403 15be
000002b0: a320 00bd 8579 5c3e a4ba e4bd a066 dcbc
000002c0: 1173 38be 393f 573d 4857 f63c 040d 0cbe
000002d0: d892 c53d 511a 073e 9eb8 18be 0814 3fbe
000002e0: 3c44 40be 8c3d 92bd f340 893d 788d 52be
000002f0: 01e9 3bbd 535d 8ebd 7704 22be e84b 61bd
00000300: 7e54 12be bc3e c23a a7a5 3bbd 1bfd 573d
00000310: 4dac 9a3c 90a3 31be 751a 42be d9c5 36be
00000320: a9a7 eb3b 31fa 80be c40b 57be 267c 1a3c
00000330: b969 353e c50a 68bd 2627 08be 2d4e 523e
00000340: a522 143e 30ab c6bc db07 bdbd 3fc5 6dbe
00000350: 587d 1d3e 5600 f83d 23ad 503d e871 71be
00000360: 221b 17be b8bd 953d 1e35 bebd ce4e 4dbe
00000370: dc69 ea3b e14b 44be 6eca 53be 2596 b8bc
00000380: 3ee6 87bd 65be 0c3e 0fcf 2a3e e8b2 ee3c
00000390: c521 edbd 79dd 1c3e e385 d2bd c57c 0d3e
000003a0: 4b1b 183e fd07 973d f149 4b3d 9833 05be
000003b0: 2445 0bbe 6680 2d3e 50f4 09bd f018 3bbd
000003c0: b0be 76bd 21b5 533e 6d3c e13d 4649 bebd
000003d0: 548d c6bd 9f1e 9b3d a206 c63d 1bc1 45be
000003e0: 07d9 80be ed94 3b3e 5aae 1ebe 668e 9e3d
000003f0: 6c4d 64be 4657 633d bcd2 56be 18ae 56be
-0.17365173 0.08848564 -0.024920348 0.18001379 -0.1477075 0.025111912 0.00029251075 -0.14640075
-0.117674105 -0.14797181 0.08505922 -0.014306383 -0.03963537 0.06668672 -0.12767714 0.15619831
-0.07292616 -0.052275732 0.11203129 -0.025697498 0.006525868 -0.07175194 -0.036182772 -0.03070263
0.1600183 0.06503278 0.046741687 -0.030803906 0.029654458 -0.011493732 0.019007033 0.16882499
-0.12112806 0.12513337 -0.16938896 0.21594654 -0.061774664 0.032950133 0.025297083 0.17038776
0.1330518 0.04085972 0.09652206 -0.10558654 0.06537335 -0.11752238 0.1039593 -0.07617106
0.14120005 0.29354295 -0.13763729 -0.1238187 0.11186751 -0.078007974 -0.16103967 0.07543426
0.21189761 -0.09856251 -0.063626714 -0.08163207 0.16761367 0.034111615 -0.19104886 -0.2586442
0.2427212 0.08503194 -0.20622414 -0.19313037 -0.11089421 -0.111372426 0.15311348 -0.16297515
0.10582215 0.011870854 0.0087639885 -0.04855381 -0.034217227 -0.23370492 -0.07334228 -0.098704085
0.14582103 0.15262933 -0.22258765 0.05249744 -0.12940767 -0.18151487 0.08665195 0.19882175
-0.17721868 0.099070325 0.088028155 -0.1804173 -0.10870649 -0.0357038 -0.28251782 -0.093632
-0.2964677 -0.15518929 0.011872148 -0.020390412 -0.031065706 0.16026579 0.18770646 -0.17069645
0.07422086 0.029093347 0.089691795 0.036632247 0.020229436 0.20879848 0.0018857713 0.13924755
0.03597422 0.2896671 -0.041433875 -0.13043979 -0.15678333 -0.16141942 0.04152528 0.12438913
-0.15292051 -0.12602848 0.0058516054 -0.20846903 -0.22150633 0.15238701 -0.18600497 0.17334728
-0.10045967 0.17659284 -0.036947843 0.12578227 -0.2043516 -0.10721434 -0.054120973 -0.03155379
0.1463011 0.14408605 -0.08858916 0.02611497 -0.15706435 0.15388782 0.024284499 0.092330776
-0.26247418 0.14862902 0.1274688 0.12218659 -0.27437925 -0.19828184 -0.00034546186 -0.22581619
0.002642031 -0.12985918 -0.013845279 -0.26803806 0.10364862 -0.13980733 -0.041822463 -0.116119415
0.2001083 -0.19836482 0.062147424 0.13004823 -0.048187137 -0.21277028 -0.18036407 -0.21238942
-0.09149337 -0.2651958 -0.13407345 -0.14551932 -0.031281125 0.21530731 -0.111684114 -0.026904404
-0.18012644 0.05255053 0.030070916 -0.1367684 0.09647149 0.13193633 -0.14914176 -0.18659985
-0.1877603 -0.071406454 0.06701841 -0.20561779 -0.045876507 -0.06951394 -0.15822016 -0.05500403
-0.14290044 0.0014819722 -0.045812275 0.052731615 0.018880988 -0.1734755 -0.18955405 -0.1784891
0.0071916175 -0.2519088 -0.21000582 0.009429013 0.17716111 -0.056650896 -0.13296184 0.20537634
0.14466341 -0.02425155 -0.09230014 -0.23219775 0.15379846 0.12109439 0.050946366 -0.23578608
-0.14756444 0.073115766 -0.09287475 -0.20049593 0.0071537327 -0.1916957 -0.2068269 -0.022532532
-0.06635712 0.13744505 0.16680549 0.029138044 -0.11578707 0.1531886 -0.10279443 0.13817127
0.14854161 0.073745705 0.049631063 -0.13007963 -0.13600594 0.16943511 -0.03368026 -0.04567808
-0.060240448 0.20674564 0.109978534 -0.092913195 -0.09694925 0.075742 0.09669234 -0.19311945
-0.2516558 0.1831853 -0.15496197 0.07742004 -0.22295159 0.055503152 -0.20978826 -0.20964849

lin.weight f4 [1, 64]
00000000: 852b 603c 29de bcbd 6f44 cb3c 0866 c23c
00000010: 1741 68bd 9fe4 81bc 3f8a 6db9 08bd 283b
00000020: 45df 49bd 18a5 083c 49ff c33c 5627 84bd
00000030: 21c9 bc3d a764 54bd 327f c3bd 78d4 ee3c
00000040: 6ae3 7d3d c4c3 813d cd61 d3bc 75cc f5bc
00000050: bb07 55bd e3b4 93bc ac16 643c 3c26 333d
00000060: e6e5 57bc ea68 dd3c c653 dc3d b4fd 86bc
00000070: 58f6 5b3d c94d a7bd 24db 383d 83ad e63c
00000080: 20b1 d1bc 3cb7 2cbb 859b 6fbc a1be 16bd
00000090: 82b1 a2bd 1c0d 333d 202b 49bc d1c0 243d
000000a0: 0597 62bd 8714 413d 4b0d 1f3d 0330 f8b9
000000b0: 5364 6f3d 3f1f fcbc 1dd9 5abc 4b43 e0bd
000000c0: f583 02bc 936f 3bbe 875e 223c 9628 70bd
000000d0: 5542 f1bd 876e ef3b 14a6 bfbd a43c cbbd
000000e0: 6f50 5e3d f506 b83d e2bd aebd cfcd 353e
000000f0: ccc1 4bbd 24c5 9ebc b921 e5bb 8f9b 8d3c
0.013682251 -0.09222061 0.024812905 0.023730293 -0.0567027 -0.015856085 -0.00022653582 0.0025747437
-0.049285192 0.008340143 0.02392544 -0.06452815 0.0921805 -0.051853802 -0.09545745 0.029154047
0.061984457 0.063361675 -0.025803471 -0.03000472 -0.052009325 -0.01803059 0.013921421 0.043737635
-0.013177371 0.027027566 0.10758166 -0.016478397 0.05370173 -0.08169133 0.045130864 0.028158909
-0.025597155 -0.0026354333 -0.014624481 -0.03680289 -0.07944013 0.043713674 -0.012278348 0.040222947
-0.055319805 0.047138717 0.038831037 -0.00047338018 0.058445286 -0.030776618 -0.013357428 -0.10950335
-0.007966031 -0.18304281 0.009910232 -0.058632456 -0.1178023 0.007306877 -0.09357849 -0.09923676
0.054275926 0.08985702 -0.08532311 0.17754291 -0.049745366 -0.019381113 -0.0069925454 0.01728609
